dqn_cartpole.pth (torch, 72721 bytes, 6 tensors)

fc1.weight f4 [128, 4]
00000000: d788 c63d 2e15 373e 9a6b f23e a2f0 c73d
00000010: c347 8b3e bde0 493d cb9c f2be 8ac8 00be
00000020: 4a32 31bd 95da c2be 421b 95be 9955 d9be
00000030: 2d26 a73e 283a 7cbe d0c1 a5bd 862a b8bc
00000040: 490c 323e 5115 263e f089 04be 8c61 43be
00000050: 2344 52be 8228 983e 8901 0a3c fed7 8a3e
00000060: 3e92 60be 8596 0cbd f684 f4bb 81cb 10bd
00000070: 9a48 84be 3f2e f13e 8a4d ac3e 5f55 873d
00000080: a7ca 0abe 7b18 42be b3bb cdbd fda5 babd
00000090: 1535 ca3e 7028 87be 941a eabe 81d3 63be
000000a0: 1ea9 b33d c2b3 73be 233d ecbc e926 79be
000000b0: a48a 8bbd 9910 423e 15f1 8d3e 927d 373e
000000c0: 8904 36bc 2298 d8bb 7407 e33e fbd3 1abd
000000d0: ce77 8ebe a433 303e dcd8 ad3e 00d8 5e3d
000000e0: 414f 4abd 80fd 30be a303 e3be 070d 25be
000000f0: 0297 ab3e 586a 9fbe 681e 5d3e 50b7 4abe
00000100: 1517 0f3f 8ec7 7abe ccef c1bc 4eef 8c3d
00000110: cc3c a3bd 5d62 fbbd 9138 74be 4285 eb3d
00000120: e07a 73be 04c3 ab3d 388d 7a3e 71e9 5fbd
00000130: 23ed 463e 8233 2bbe 73c4 eb3d 6ab0 a83c
00000140: 0427 a13e 1090 9ebe 20b2 68be 40b0 e8bd
00000150: d41e c0be c358 34be 5b56 893d dd67 c83c
00000160: 464a 6fbe f10d 673e 9934 1b3b 2457 83be
00000170: 9613 7b3e 3885 02bf 74ac 91be f070 95be
00000180: c27d 373e 3611 253e 72ca d9be 7425 87be
00000190: 03b0 c63e 9dc6 6b3e c5df 943d b6a4 73bd
000001a0: 05f7 ae3e 4c4b 99be 58e9 b5be 004d e1bd
000001b0: 1e2d 33be e3e3 af3e 35c5 0b3f e372 bc3e
000001c0: f54c 10bd fc4a 14be 118b 9c3e 7b31 c8bd
000001d0: 4a3a 363e 30ec c73d 30e3 b03e 0f7a ce3e
000001e0: 04b6 53bc cc02 e93e d56c e6be 1853 d13e
000001f0: a9ab 06bf a84d 153e 4597 bf3d addf 5bbe
00000200: 8391 723d 4cff ab3e d187 ddbe 31ed cb3e
00000210: f875 e43d 493c 07be 0eb9 4b3e b337 5e3e
00000220: 7e5d ec3d 6865 29be bf27 64be 193b 8fbe
00000230: 0173 bdbe 1fa0 603d b1ad bdbe 825e 82bd
00000240: e06f f8bd c806 d13d 608c c73e 0048 143c
00000250: a90d 85be 34ba b2be 4f72 2e3e 1a80 7c3e
00000260: 2096 1b3d 90f0 3bbe fc4c ffbe ffd8 973d
00000270: 6d72 8c3e 988e 59be 9d2c 053f 6900 2abe
00000280: babf 47be a3e1 c53e 6cef bb3d fb21 7c3e
00000290: 9ff1 abbc 23ba e13d 9d3f f23e f0d7 f0bd
000002a0: 6107 9f3e bb84 91bd a709 f93e 4edb 17be
000002b0: afb3 fbbb 4822 c83d 14f5 d7be 5cd8 383e
000002c0: 723a c8be 7165 a23e af11 7dbe f643 543e
000002d0: 3ce8 a83e 7307 5fbd 1a3f 3bbd 848b 20bd
000002e0: b26b af3e cc74 a1be debf c83e 42b9 84be
000002f0: 355b ea3e 665c 6ebe 35d7 b5bd 7703 8f3e
00000300: 6af5 6e3e e895 8b3e 2ded 053e cd9f c6be
00000310: e973 a2be d8d1 bdbe 369f 7b3e f496 55be
00000320: 4363 bbbe 8edc d6bd 7c9e 2ebe f6b2 52be
00000330: 552d 343e 77c0 26be 1157 6e3d eab6 c0bd
00000340: 9513 46be 42a4 a2be c6d1 a1be 534b 0abd
00000350: b39f cf3e 526e f8bd 5f57 f1bd 7648 ffbd
00000360: 501d 923e b02a c6bd 108e ce3e 085c 2ebe
00000370: 6567 813e 6556 8b3e d851 583e c5cf b33e
00000380: d10c 5cbe 66ab 9dbb dde8 c4be 3a5b aa3e
00000390: 17e2 613e d4fd 943e 5098 f13e 45d6 e03e
000003a0: 7e89 94be 37e6 e83e 54a4 bebe 750a 9e3e
000003b0: 6e74 d0bd 9af4 d13e 472d f43e 47c1 4e3e
000003c0: c32c 5dbe b64f d03e 0947 d6be b2d9 59bb
000003d0: fd5e 323e 3062 e63e ef85 8abd c70b aa3e
000003e0: ecbb 213e 707a 68be 9227 fabd 1353 9b3e
000003f0: edab 86be a78e d1bd c8df b7be 37df e93d
0.09694069 0.17879173 0.47347718 0.09762694 0.27203187 0.049286593 -0.4738525 -0.125765
-0.04326085 -0.3805739 -0.2912236 -0.42448118 0.32646313 -0.2463156 -0.080936074 -0.022481214
0.17387499 0.16219069 -0.12943244 -0.1908018 -0.20533805 0.29718405 0.008423218 0.27117914
-0.21930787 -0.034323234 -0.0074621392 -0.035350326 -0.2583664 0.47105595 0.33652908 0.0660808
-0.13553868 -0.18954651 -0.100455664 -0.09113691 0.39493623 -0.2639804 -0.45723403 -0.22248651
0.08772491 -0.23799041 -0.028837746 -0.2433125 -0.06813553 0.18951644 0.27722993 0.17918995
-0.01110948 -0.0066099325 0.44341624 -0.037799817 -0.2782578 0.172072 0.33954513 0.054405212
-0.04939199 -0.17284203 -0.44338712 -0.16118251 0.33513647 -0.3113582 0.2159363 -0.1979649
0.55894595 -0.24490187 -0.023673914 0.06881581 -0.079705805 -0.12274621 -0.23849703 0.11500026
-0.23777342 0.08386806 0.24467933 -0.054665986 0.19426398 -0.16718867 0.11512079 0.020591933
0.3147508 -0.30969286 -0.227242 -0.11361742 -0.3752352 -0.17611985 0.06705924 0.024463588
-0.23368177 0.22563912 0.0023682474 -0.2565242 0.2451919 -0.50984526 -0.28451884 -0.29187727
0.17919067 0.16119847 -0.42537266 -0.26395762 0.3880616 0.23024984 0.07269243 -0.059483252
0.34172836 -0.2994026 -0.3552959 -0.11001015 -0.1749768 0.3435355 0.5459779 0.36806402
-0.035229642 -0.1448173 0.3057485 -0.09775063 0.17795673 0.09761846 0.3454833 0.40327498
-0.012921814 0.45509946 -0.45004907 0.40883708 -0.5260568 0.14580405 0.09355024 -0.21472044
0.059220802 0.33593214 -0.43267682 0.398294 0.11155313 -0.1320659 0.19894812 0.21700935
0.1154127 -0.1654259 -0.22280787 -0.27974775 -0.37001804 0.054840203 -0.3704658 -0.06365682
-0.121307135 0.102063715 0.38974285 0.009050369 -0.25986984 -0.34907687 0.17035793 0.24658242
0.037984967 -0.18353486 -0.49863422 0.074144356 0.2743105 -0.21245801 0.520212 -0.16601719
-0.19506732 0.3864871 0.091765255 0.24622338 -0.020989237 0.11021831 0.47314158 -0.11759937
0.31060317 -0.071053945 0.48640177 -0.14829752 -0.007681332 0.09772164 -0.42179167 0.18051285
-0.3910709 0.3171802 -0.24713777 0.2072905 0.3298968 -0.054450464 -0.045714475 -0.039195552
0.34261853 -0.3153442 0.39208883 -0.2592259 0.4577271 -0.23277435 -0.08878938 0.2793233
0.23335806 0.27262807 0.13078757 -0.38793793 -0.31729057 -0.3707416 0.24572453 -0.20858365
-0.36599168 -0.10491286 -0.17052644 -0.2057608 0.17595418 -0.16284357 0.0581885 -0.09409888
-0.19343407 -0.31765944 -0.31605357 -0.03376324 0.40551528 -0.12130417 -0.11784243 -0.12464993
0.2853799 -0.09676111 0.4034276 -0.17027295 0.25274196 0.2721435 0.21124971 0.35119453
-0.21489264 -0.004811692 -0.3845891 0.33272725 0.22058903 0.29099905 0.47186518 0.43913475
-0.29011148 0.4548814 -0.37234747 0.30867353 -0.10178457 0.4100693 0.47690794 0.20190917
-0.21599106 0.40685815 -0.4185107 -0.0033241329 0.17419048 0.44996786 -0.06763827 0.3321211
0.15794343 -0.22702956 -0.12214579 0.30336818 -0.26303044 -0.10232287 -0.3591292 0.11419528

fc1.bias f4 [128]
00000000: 73c2 4cbc 94d7 dbbe 6313 b4be 7e54 b63e
00000010: 0ec6 053f 34cd 9abe 565b adbc 5629 08bf
00000020: a316 303e 7c79 43be a744 063f 97d7 843e
00000030: 5bb1 ecbd a6c1 b6be 850e 3dbe 7266 e0be
00000040: c0a0 9ebe 9a0d 153f 4ca8 5d3e 16b5 06bf
00000050: 0677 e7be debd 093f b5cd b93e 4f20 c9be
00000060: 5c18 10bf 2c55 153f dc03 99be 2c9c b1be
00000070: 2465 75be 5628 8abe 77a3 04bf 7884 a13e
00000080: b0ee 023f 513c 0e3f 935e 083f ac63 aabe
00000090: e451 9fbe b11b 01bf 8318 6f3e 012d d43c
000000a0: 87e8 cdbd af2d fa3e 3dd9 94be 200a a2be
000000b0: fe4d 1a3e f022 b1bd 9256 52be 11c2 e13e
000000c0: 6ec5 19bf 07d9 053f e257 b7be 465f 863e
000000d0: a734 0f3f 3fda 583e 4a31 b9be 79af 063f
000000e0: 127b d4be 114d 12bf d8e6 713e c47b 4fbe
000000f0: 75b5 0abf c03c 213e d350 ddbe 14a9 ecbe
00000100: 9dc4 d6be 88f1 043f 9b61 d03e 6026 f7be
00000110: b346 d1be a3b4 2fbe 08f6 033f 338a dd3d
00000120: 2d74 d03e 689d 07be 4090 983d 3eaa abbe
00000130: 7985 08bf f75d 38be 79eb 02be cbef 6e3e
00000140: 1634 a1be d66f 133f 00a8 633e a219 e7be
00000150: 81b6 283e 3032 9cbe 67f4 43be c6d9 93be
00000160: 02ec cdbe 5b88 96be 82bb f23e 425a f13e
00000170: b98d ec3e 77b6 063f e580 7abe 85a9 dabe
00000180: 962e 2dbe 05bd aebe b7be a33e 739a 9f3e
00000190: 18d9 22be b7eb 0bbf 0776 2dbe c041 86be
000001a0: dba8 0e3f cf3f d2be 5201 0fbe f131 80be
000001b0: 5d87 863e d145 0c3f 1020 5e3e b3fc 8a3e
000001c0: c8f1 c4be ae51 aebe 9013 c73e 06e5 113f
000001d0: e200 863e 73ff 2c3d 86e7 143f 2381 8fbe
000001e0: 2fe2 9abe 03cf e83e b5fc 07bf 0ee1 b6be
000001f0: 7074 903e a6d1 afbe fd34 a3be 93e5 e6be
-0.012497532 -0.4293791 -0.3517104 0.35611337 0.5225533 -0.30234683 -0.021161716 -0.53188074
0.17196135 -0.19089311 0.52448505 0.25945732 -0.11557265 -0.35694617 -0.1846257 -0.4382816
-0.30982018 0.5822388 0.21646231 -0.52620065 -0.45207995 0.5380534 0.36289755 -0.39282462
-0.5628717 0.58333087 -0.29885757 -0.34689462 -0.23964363 -0.269839 -0.5181193 0.31546378
0.5114546 0.55560786 0.5326931 -0.3327917 -0.31117165 -0.5043288 0.23349194 0.025900366
-0.10054117 0.4886298 -0.2907199 -0.3164835 0.15068814 -0.08649242 -0.20540836 0.44093373
-0.6006688 0.5228428 -0.35809237 0.26244563 0.55939716 0.21177004 -0.36170417 0.526115
-0.41500145 -0.57148844 0.23623216 -0.20262057 -0.5418313 0.1574583 -0.43225726 -0.46222746
-0.4194688 0.5193105 0.40699467 -0.48271465 -0.40874252 -0.17158751 0.5154729 0.10817375
0.40713635 -0.1324364 0.074493885 -0.33528322 -0.53328663 -0.18004595 -0.12785138 0.23333661
-0.3148505 0.57592523 0.22232056 -0.45136744 0.1647587 -0.3050704 -0.19136201 -0.28877085
-0.40219122 -0.29400906 0.47408682 0.47139174 0.46201876 0.5262217 -0.24463232 -0.42707458
-0.16912302 -0.34128585 0.3198144 0.31172523 -0.15903127 -0.5465655 -0.16939555 -0.26222038
0.55726403 -0.41064307 -0.13965347 -0.25038102 0.2627515 0.5479403 0.21691918 0.2714592
-0.38465714 -0.34046692 0.38882113 0.5699009 0.2617255 0.042235803 0.58165777 -0.2802821
-0.3025069 0.45470437 -0.53119975 -0.35718578 0.28213835 -0.34339637 -0.31876364 -0.45097026

fc2.weight f4 [128, 128]
00000000: 35f4 fdbc 4343 8d3c ef1d 1a3d 4768 0a3d
00000010: 4fc5 12bc 4c20 903d fac0 d0bd 1894 dd3d
00000020: 8dac d8bd af55 3a3d 40a7 dfbd 9f34 dcbc
00000030: 3fa7 59bd 0b33 9f3d 6ede fabc 54d1 0a3c
00000040: 2f75 1d3d 6e4a 3dbb 397b 0bbd 336f 4f3d
00000050: 7f4d 56bd d645 b8bd 342a 87bd 9ae7 933c
00000060: 4e9c d3bb 281a 7d3a d24b 3dbd 15fe 223d
00000070: 2225 b4bb e456 02bc ad89 a3bd 19b5 fe3c
00000080: e019 af3c cfd5 9abd 0ed0 4f3d ce23 8fbd
00000090: f0d2 1a3d 2edf 30bb 49ca 843d a2a5 fa3c
000000a0: a792 243d 8ff3 b0bd 765d 943c 198c 85bd
000000b0: 2627 9a3c 7f0d 19bd 5613 81bd c138 9abd
000000c0: a255 c23c 703d 9cbd 7707 bbbc 2f49 7a3d
000000d0: d989 13bc f6be e8bd 3fda 90bd 0033 2c3d
000000e0: 4f52 9abd 0aa9 ad3c 8470 6abc 1494 89bd
000000f0: ebe2 283d 5431 db3c 0c30 6dbd 5df3 6cbd
00000100: 44f8 58bd eebd 3b3c 8932 3d3d 9ee8 7a3d
00000110: 65d4 91bd 8c94 57bc d5fb d0bd 3462 b1bd
00000120: 8ff0 623d 7309 9fbd fb00 b9bd eb84 823b
00000130: adff aabc 054b 003c d662 febc f3dc 7abd
00000140: f9e3 4e3d 3f8c 7bbd c0ed 3dbd 2756 27bd
00000150: 521f a2bc 3ef0 763d d489 7b3d 0e1c 74bc
00000160: 1841 babc 4daa 243d 2977 cebb a7ed 35bd
00000170: bda9 93bc e515 81bc 8155 563d d1dc d4bd
00000180: a5c8 a8bd 72b0 0a3d c364 66bd 389a a2bd
00000190: 067a 0abc 70a0 91bd 2bc5 85bc 8332 4abc
000001a0: cf80 49bd 5339 9a3c 2f11 a23d f56b edbc
000001b0: b9e7 d7bd 0146 04bc 6d77 d1bd b4b8 0e3d
000001c0: ac1b 823d be87 89bd 675b 633d fab0 38bd
000001d0: 4eba 803d 9a5f 50bc 7906 753c 4faf ef3c
000001e0: efcd 88bd c563 533d 1dc0 913d 98d8 7cbd
000001f0: ede2 813c 95f6 a53d a2c7 603c 141b 46bc
00000200: 94de 50bd 7d67 643d c188 a43d b699 393a
00000210: d01e c1bd 257b 07bd d816 7f3d 0861 023d
00000220: 77af 5fbc f092 823c ad9f b33c 37a5 7d3c
00000230: e0da 5e3d 4059 94bd 6454 923d e938 ff3c
00000240: bd88 4ebd 5b31 8dbd 1f1c 063d 25e8 80bd
00000250: e7a4 f13c a75f 393c 600b 973d 56bf 44bd
00000260: 9d26 ce3c 194b 58bc ca5d 5dbd e3e7 133c
00000270: fa64 693c 53c1 a9bc 79bd 743d f235 99bc
00000280: a893 493d f6a9 a9bd 532c 01ba 4456 ccbd
00000290: 4019 8d3d 0069 dcba f9a5 90bd d5dd e7bc
000002a0: 4965 123b 8c71 bdbd eaa3 d63c c7b6 91bc
000002b0: 749f a13c edeb 3c3d 0221 c7bd 1529 9abd
000002c0: a16f adbd c856 8bbc 4e92 17bd bb4f 283d
000002d0: cee3 323d 3584 933d e2a7 963d 8e90 d33b
000002e0: e1b7 8dbc 11f8 b0bb 0323 313d 49f0 133b
000002f0: 8989 9b3b 6a96 77bd 0fab 363d c4f4 823d
00000300: bbc8 a9bc 9f6a 1dbb 0bd0 c3bd 3929 523d
00000310: 6387 703c f847 4cbd ee7b 8fbc d6d2 94bc
00000320: a8d7 943d 7b39 883a 30f9 afbc c3ad 0fbd
00000330: 12c7 b1bb 30f1 3c3d 19a2 73bd 104f aa3c
00000340: c32b 583d 1d91 573c 15a0 cabc 5260 763d
00000350: 8543 28bd 831b 2c3d 83a3 c9bd 6633 d93b
00000360: 76e6 f6bc 21f1 a53d fecf 07bd 7860 8dbd
00000370: d252 5abc 3780 8abd db1b 9b3d 60df 49bd
00000380: 5a56 9ebc fc4d 8ebd 3cc5 523d 06f6 f2bc
00000390: ab5a abbd 5e7e 893d 24a0 74bd 1500 a3bd
000003a0: fe33 853c 6bc0 413d c2cb 3dbd 5111 993d
000003b0: 84bd 343d 1926 d2bc ae5e 5c3c 5ef9 8fbd
000003c0: f0d5 76bd 9893 bc3b 45cb 993d 04b9 4e3c
000003d0: b492 4e3c 1f19 803b 6199 613c 059b aebd
000003e0: 239b b93c 98eb 8f3d 5d58 c63b cc2f 95bd
000003f0: f82a dbbc c261 353b 5d6c 783d f616 78bc
-0.031000236 0.017243987 0.037626203 0.033790853 -0.008958175 0.0703741 -0.10193057 0.10819262
-0.105797864 0.04549187 -0.10920572 -0.02688056 -0.053138014 0.077734075 -0.03062364 0.008472759
0.038441833 -0.0028883475 -0.03405306 0.050643157 -0.05232 -0.08997695 -0.065998465 0.018054772
-0.006457842 0.00096550817 -0.046214886 0.039793093 -0.0054975906 -0.007955287 -0.07985244 0.031092213
0.021374643 -0.07560312 0.050735526 -0.06989251 0.037798822 -0.0026988494 0.06483895 0.030596558
0.04017892 -0.08640205 0.018110972 -0.06520862 0.018817496 -0.037366387 -0.06302516 -0.07530356
0.023722474 -0.07628906 -0.022830708 0.06110495 -0.009005033 -0.11364548 -0.07072877 0.042040825
-0.0753523 0.021198768 -0.014309052 -0.06717697 0.04123203 0.02675692 -0.05790715 -0.057849277
-0.05297114 0.011458857 0.046190772 0.061256997 -0.07120589 -0.013157975 -0.10204283 -0.08661309
0.055405196 -0.07765474 -0.0903339 0.00398313 -0.020873869 0.007830386 -0.031052988 -0.06124587
0.05051038 -0.061413046 -0.046369314 -0.040853646 -0.019790325 0.060287707 0.06141074 -0.014899267
-0.022736117 0.040201474 -0.006300826 -0.044416096 -0.018025273 -0.01575751 0.052327637 -0.1039368
-0.08241395 0.033859678 -0.056248438 -0.07939571 -0.008451944 -0.07110679 -0.016329369 -0.0123411445
-0.049195107 0.018826162 0.07913434 -0.028982142 -0.105422445 -0.008073331 -0.10227857 0.034844115
0.06352934 -0.06715344 0.05550709 -0.045090653 0.06285535 -0.012718106 0.0149551565 0.029258398
-0.06679904 0.05160882 0.07116721 -0.061729997 0.015855277 0.081036724 0.013719471 -0.012091417
-0.050993517 0.055762757 0.08033896 0.00070800947 -0.09429705 -0.033076424 0.062277645 0.031830817
-0.013652674 0.015939206 0.021926725 0.015481285 0.054407954 -0.072435856 0.071450025 0.031155067
-0.050423373 -0.068941794 0.032741662 -0.06294278 0.029497577 0.011314309 0.073752165 -0.048034035
0.025164897 -0.013201498 -0.054044522 0.009027454 0.014245266 -0.020722067 0.059751008 -0.018702481
0.04921308 -0.082843706 -0.00049275643 -0.09977391 0.06889582 -0.001681596 -0.07062907 -0.02830402
0.0022338203 -0.09250173 0.026201207 -0.01778735 0.019729353 0.046123434 -0.097230926 -0.07527367
-0.08468557 -0.017009154 -0.03700476 0.041091662 0.043674283 0.07202951 0.0735624 0.0064564412
-0.017299594 -0.0054006656 0.04324628 0.002257364 0.00474662 -0.06044618 0.044596728 0.063943416
-0.020725599 -0.002401985 -0.095611654 0.051308844 0.014680716 -0.049873322 -0.017515149 -0.01816694
0.07267696 0.0010393107 -0.021481127 -0.03507782 -0.0054253424 0.04612845 -0.05948076 0.020789653
0.05277611 0.013157156 -0.024734536 0.060150452 -0.041080017 0.042018425 -0.098456405 0.0066284416
-0.03013919 0.08102632 -0.03315734 -0.069031656 -0.01332541 -0.06762736 0.075736724 -0.049285293
-0.019328285 -0.06948468 0.05145763 -0.029658329 -0.08366903 0.06713556 -0.059723035 -0.07959
0.016260143 0.047302645 -0.046336897 0.07474006 0.04412605 -0.025652932 0.013450308 -0.07029985
-0.06026262 0.0057548992 0.07509474 0.012617353 0.012608219 0.0039092447 0.013769479 -0.085256614
0.022656983 0.07027358 0.006053014 -0.07284507 -0.026753888 0.0027676676 0.06065022 -0.015142193

fc2.bias f4 [128]
00000000: 2d11 833d 8790 a4bd c4fc 903d cd89 293c
00000010: d771 af3d b8ca a0bd 169d fd3d a287 7cbc
00000020: 0832 1a3e ebb9 603e fffc cd3c aeb2 edbc
00000030: 4280 77bc 6c8c 913d 7e10 403e f535 71bd
00000040: dcfb b6bd b200 403e ced0 053e c0d0 833c
00000050: ea8b fd3c f596 b23d c676 323e 4c7e 693d
00000060: 0638 ddbd ba22 7b3d 55c4 1e3e 829c 86bd
00000070: 09be e3bc 0374 8ebd 0270 f9bc 0324 713c
00000080: 2880 0d3d 7204 06bd ac72 923c 3db9 97bd
00000090: 1d18 083e 133a b53c 8b9b b4bd ece7 473e
000000a0: be97 133d 9449 503e ed41 a63d cce4 69bd
000000b0: ebb2 143e c00a 12bd 26f5 773d ebcb 5f3d
000000c0: 4737 3dbd f8ff 1c3e 87b3 0e3e 106f 92bd
000000d0: 117c 883c c25b 8abd d2d6 0e3e 44ca a0bd
000000e0: c0e0 4e3e d088 183e 5c3a 443e 08e3 4e3e
000000f0: 3f59 0dbd 66f4 6cbd 83d6 e7bd b540 283d
00000100: ac41 423e 2b2f b1bd 09b1 36bb d55f c8bb
00000110: 5c08 b13d 50fe 843d c408 523e 0aa6 333e
00000120: f2f3 093d 15c0 c7bb 27d2 133c 8c83 553e
00000130: 1bf0 4d3e 4b19 203d d3d4 523d 6042 213e
00000140: 2d06 9bbd e99b a13c 69f2 923d 00ee ae3d
00000150: a36e 423e 66a4 673d c04e 7bbd 4228 bcbd
00000160: fb5c 28bd c6d6 2bbd dd21 8ebd 57c8 613d
00000170: 26df d0bc a2ee a7bd 03c0 9c3d e808 7ebc
00000180: 258c bdbc 38fc a33b feda 8e3c 3eb0 4d3d
00000190: a764 103e b770 a4bd 20cb 0b3d 2777 d63b
000001a0: 42ae 09bd 5ebb a63d 9498 423e 7fc8 2b3c
000001b0: f249 183e a17b 5cbd 130f b8bc f32b 773d
000001c0: c688 3cbd 740d 423e 69e0 ec3d dd44 e03d
000001d0: 9d59 313e 236e 393e 7a4b 9e3d c554 0cb9
000001e0: 4f15 633d ecb5 9cbd 7628 9e3b 222d aebd
000001f0: 07e3 c63c 508a 343e 2ce6 88bd e419 3b3d
0.063997604 -0.08035379 0.07079461 0.010347796 0.08566635 -0.078511655 0.123834774 -0.015413197
0.15058148 0.21945922 0.025145052 -0.029015865 -0.015106263 0.071068615 0.18756291 -0.058889348
-0.08934757 0.18750265 0.13067934 0.01609075 0.030950505 0.08720199 0.17428121 0.05700521
-0.10801701 0.061312415 0.15504582 -0.0657282 -0.027800577 -0.06955721 -0.030448917 0.0147180585
0.034546047 -0.032719083 0.017876945 -0.07408378 0.13290448 0.022122419 -0.0881873 0.19522065
0.036033385 0.20340568 0.08118043 -0.057102963 0.14521377 -0.035654783 0.060536526 0.05463783
-0.046195295 0.1533202 0.13935672 -0.0715009 0.016660722 -0.06755783 0.13949135 -0.07851079
0.20202923 0.1489594 0.19162887 0.20203793 -0.03450894 -0.057850264 -0.11320212 0.041077334
0.18970364 -0.08651575 -0.0027876517 -0.0061149397 0.086441725 0.06493819 0.20511156 0.17543808
0.03367991 -0.006095896 0.009022272 0.20850962 0.20111124 0.03908662 0.051472496 0.15747976
-0.07569537 0.019727664 0.07175142 0.08541489 0.18987517 0.056553267 -0.0613544 -0.09187366
-0.041104298 -0.04195287 -0.06940053 0.0551227 -0.02549703 -0.081998125 0.07653811 -0.015505053
-0.023138115 0.005004432 0.017438408 0.050216906 0.14100896 -0.08029311 0.034129262 0.006544966
-0.03361345 0.08141206 0.19003516 0.010484814 0.14871958 -0.05382884 -0.022468125 0.060344648
-0.046028875 0.18950444 0.1156624 0.10950635 0.17319341 0.1810842 0.0772924 -0.0001338302
0.055440243 -0.07651886 0.0048266007 -0.08504702 0.024278177 0.17630887 -0.06684527 0.045678988

out.weight f4 [2, 128]
00000000: 17d3 2dbc 419f 86ba 85ba b73d 2e4a f3bc
00000010: d0bd ec3d 7a16 043d 5745 453e adaa ae3d
00000020: b721 253e 231d 4c3e 0dcf 833d 6901 ffbb
00000030: 4588 8c3c 9190 0b3e 1896 743d d3e9 aebd
00000040: 665d 9bbd d627 193e 0ac5 183e fe6c 3e3c
00000050: 8e03 aabd d884 a33a b510 553d 47b9 113d
00000060: f806 87b9 58ae 1c3e 4a55 fb3d c0cb 0ebd
00000070: f431 633d 00cb aebd 4235 a63d a457 acbd
00000080: d679 833d 3516 d73c 27ac aabb 7c82 a43d
00000090: 0cdf 113e b0da ddbc abe7 413d 87d3 093d
000000a0: 90eb a53c aa83 403e e1d0 2f3e f7b6 8ebc
000000b0: add0 233e 6ab1 af3c bbd9 b3bc 1e2c 40bd
000000c0: e222 433d e74f 283e 0262 003e e74e ea3c
000000d0: 8f3e b33d 909f 8abd af90 ac3d 7467 b4bd
000000e0: 786b 243e b546 b03c 0546 043e 624f 263e
000000f0: 7b50 813d ed64 73bd 3e24 6fbc dfcf 8f3d
00000100: 08be 0b3e a413 a9bc 988e cabd 26c7 0abd
00000110: e98f 143e 0abd a63c e998 d43d ff64 023e
00000120: 4679 10be c35d 843d 57d0 00bd 1588 2c3e
00000130: b8d9 293e 1097 563c 7124 f23b fdf6 013e
00000140: e634 01bd 2cc6 7abb eaf5 e43d 00d3 543d
00000150: 877c 5c3d ab17 edbc 9782 09bd 7e14 96bd
00000160: bd46 93ba 765b 8bbd c7ff d63a b729 2a3e
00000170: 5a36 413d 42cf 8abb 77b4 b73d 2e65 85bc
00000180: c3d4 613d 32d9 74bc 6670 813c 5626 5d3d
00000190: 317c 1c3e 5bff cbbb 93da f23c 83e1 2dbd
000001a0: e907 b43d b95e 1c3e ddeb 293e 0b85 403d
000001b0: 0ce5 ca3d c04a fdba 776e d23c 833a 2e3e
000001c0: 2ca7 46bd f6f7 0b3e dfb5 1a3e 7211 9f3d
000001d0: 1729 083e 868c 213e 01db c93d 628c d6bc
000001e0: de10 0e3e 6c9a b33c 37f8 3b3d 189f b6bc
000001f0: 7040 76bd 3657 1c3e 1cfb 8fbd 669b 8ebd
00000200: 7b64 5ebd 7da6 24bd 5c95 1b3e 8032 c2bc
00000210: aa70 c23d a714 b23d 05df 353e 3fde 433d
00000220: 50f0 013e c5c3 203e 2afa 1b3d c53a 8ebc
00000230: 3c70 2ebc ced9 d73d add8 113e a45c 783d
00000240: 9da2 ea3b 34e4 453e e15d ce3d de01 c13d
00000250: fc4b b4bd 4a7b fa3d 6a66 dd3d cfed 243e
00000260: 765d c63d cecd 183e 9995 2d3e 9d37 3abd
00000270: fc2c a7bd fee4 6f3d 5434 8cbd 1965 7ebd
00000280: bec2 01bd 58b0 f0bc a84c c33c 3b97 0b3b
00000290: 4222 d73d 534c fa3c 9e78 a3bd e954 283e
000002a0: 1686 23bd d572 113e 2e81 0c3e 7f62 76bd
000002b0: 97b4 213e 237a 8bbd 691c 0bba 23be a2bd
000002c0: d573 99bd 282d 223e 523b 753d 02fa 82bd
000002d0: 2594 55bd 917c 253d 5e4f a83d 12b2 74bd
000002e0: ff14 af3d 200d f23d 6ab4 0a3e 781f c63d
000002f0: be1f b0bb bce4 bcbc c4ee 81bb 9006 e23d
00000300: 26eb b63d 9b0a a03c 653f f93c 8ce3 df3c
00000310: 9cce 2d3e d25d 8dbd 2548 393e 350c c23d
00000320: d130 38b9 eb91 79bd f558 61bc 36a4 5f3d
00000330: 341a d33d fdee 8dbb 7785 003e 2032 0d3e
00000340: 72d6 8c3c 8699 f6bc dddc f63d 539f e23d
00000350: 2354 193e 5486 a3bd dac1 033c dc26 003d
00000360: a5d8 08bd 2722 bd3c 9595 27b8 2189 913d
00000370: 434c 9f39 5ea3 bbbb c577 063e 72cb 61bc
00000380: ed78 b7bd e997 2ebd b325 6ebc 87ae b8bc
00000390: 235b 0b3e 9085 42bd 2547 9cbc ecf2 f6bb
000003a0: c7f2 86bd 3f0b b23d 177d bf3d f25c 71bd
000003b0: 4ab8 353e 47b9 45bd edc1 6bbd cc12 203e
000003c0: fc14 64bd 5c57 163e 21b5 2b3d e011 213e
000003d0: 3e8e a73d fb08 453e 9853 203d edad 4cbd
000003e0: 9a08 ce3d 6596 663d 2d96 a3bc db9f 1dbd
000003f0: 962e 033d e613 933d 47a2 0dbd 5258 e03c
-0.01060941 -0.001027085 0.08971123 -0.029698458 0.11559641 0.032247998 0.19264732 0.085286476
0.16126142 0.1993299 0.06435976 -0.0077821505 0.017154822 0.13629366 0.059713453 -0.08540692
-0.07586174 0.14956602 0.14918914 0.011622665 -0.08301459 0.0012475504 0.052017886 0.035577085
-0.000257544 0.15300882 0.12272127 -0.03486228 0.05546756 -0.08534813 0.08115627 -0.084151536
0.06419723 0.026255706 -0.0052085104 0.080327004 0.14245242 -0.027081817 0.047340076 0.033648994
0.020253927 0.18800226 0.17169525 -0.017421229 0.15997572 0.021446902 -0.021954408 -0.046917073
0.04764069 0.1643673 0.12537387 0.028602077 0.087521665 -0.067687154 0.08426034 -0.088087946
0.16056621 0.02151809 0.12917335 0.1624122 0.063141786 -0.059422422 -0.014596043 0.0702207
0.1364671 -0.020639248 -0.09890479 -0.03388133 0.14508022 0.020353813 0.10380728 0.1273384
-0.14108762 0.06463196 -0.03144869 0.16848786 0.1658696 0.01309754 0.007389598 0.12691875
-0.03154459 -0.0038265092 0.11179717 0.051959038 0.053829696 -0.02894195 -0.033571806 -0.07328127
-0.0011236292 -0.06804554 0.0016403132 0.16617475 0.047170974 -0.004236133 0.08969968 -0.016283598
0.055134546 -0.0149443615 0.015800666 0.053991638 0.1528175 -0.006225509 0.02964524 -0.042451393
0.08790571 0.15270509 0.16593881 0.04700188 0.099069685 -0.0019324645 0.02568744 0.17014508
-0.04849927 0.13668808 0.15108441 0.07766999 0.13296925 0.15776262 0.09856225 -0.026189987
0.13873622 0.02192422 0.045891013 -0.022292659 -0.060120046 0.15267643 -0.07030317 -0.06963234
-0.054295044 -0.040197838 0.15193695 -0.02370572 0.09494145 0.08695345 0.17760856 0.047819372
0.12689328 0.1569968 0.038080372 -0.017362008 -0.010646876 0.1053959 0.14242812 0.060635224
0.0071604983 0.19325334 0.100765 0.09424184 -0.08803555 0.12230547 0.108105496 0.16106342
0.09685795 0.14922258 0.16951598 -0.045463193 -0.08162877 0.058567993 -0.06845918 -0.062108133
-0.03167986 -0.029380962 0.023840263 0.0021299857 0.10504581 0.030553972 -0.0798199 0.1643864
-0.039922796 0.14203961 0.13721153 -0.060152527 0.15791546 -0.06810405 -0.00053066626 -0.07946422
-0.07492796 0.15837538 0.059871025 -0.063953415 -0.052143235 0.040402 0.08218263 -0.059740134
0.085489266 0.1181891 0.13545385 0.09673971 -0.0053748777 -0.023058288 -0.0039652307 0.11036408
0.0893157 0.019536307 0.030425737 0.027330182 0.16973346 -0.069026604 0.18093927 0.094749846
-0.00017565793 -0.060930174 -0.013754119 0.054599963 0.10307732 -0.004331468 0.12550913 0.13788652
0.0171921 -0.030102503 0.12053845 0.11065545 0.14973502 -0.079846054 0.008041823 0.03128706
-0.033409733 0.023087574 -3.9955212e-05 0.071062334 0.00030383663 -0.005726262 0.13131626 -0.013781415
-0.08958612 -0.04262534 -0.014535355 -0.022544159 0.13608985 -0.047490656 -0.019076893 -0.0075362828
-0.06589275 0.08693551 0.09350031 -0.05892653 0.17746082 -0.048272397 -0.05755799 0.1563217
-0.055684075 0.14681762 0.041920785 0.15729475 0.081814274 0.19241707 0.03914222 -0.049970556
0.10060234 0.05629577 -0.01996907 -0.03848253 0.03202685 0.0718153 -0.034578588 0.027385864

out.bias f4 [2]
00000000: 33aa 3b3e bbe4 0b3e
0.18326645 0.13661472
